mnist_model.pt (torch, 353437 bytes, 38 tensors)

conv1.weight f4 [16, 1, 5, 5]
000000 c9 1c 85 3d 63 46 55 bd 7b a6 f2 bc 43 d3 bc 3c
       0.06499631 -0.05206908 -0.0296204 0.023049956
000010 31 82 47 be c3 b6 d1 3c e8 e3 2f bd c3 d5 82 3d
       -0.19483258 0.025599843 -0.042941958 0.06388428
000020 fb 4f ec bb ad 1c 42 bd 3a d4 9f b9 61 4f 2e 3a
       -0.007211683 -0.04739063 -0.00030484964 0.00066494016
000030 7a 76 c9 3d cb db 52 3d 4c b9 49 3d e7 a2 2d bc
       0.09837051 0.051479142 0.04924898 -0.010597921
000040 5c 4a 13 3c cd 97 70 ba ea d5 5f 3e 93 1c d4 3d
       0.008989897 -0.00091778935 0.21858945 0.103570126
000050 62 d5 01 3c 98 07 09 be b2 d4 10 be c2 ea 47 be
       0.00792441 -0.13381803 -0.14143637 -0.19523147
000060 a4 d6 ab bd 5d fb 36 bd b6 f5 af 3d 27 e8 a6 3d
       -0.08390549 -0.044673312 0.085917875 0.08149748
000070 33 6f 80 be 90 09 b0 3d 80 a6 e4 3c ab 41 f1 3d
       -0.25084838 0.08595574 0.027911425 0.11780103
000080 72 7d 22 3d e7 f1 86 be 4d 28 44 be a1 ee d1 bd
       0.039670415 -0.26356432 -0.19155999 -0.10250593
000090 b5 d2 15 3e 03 ab 93 bc 43 1e e7 3d 28 94 90 3d
       0.1463116 -0.01802588 0.11285069 0.070595086
0000a0 94 c8 4b 3e 77 1d 1e bd 38 cb 63 3e ee 8b 1f 3e
       0.19900733 -0.03860232 0.2224549 0.15580723
0000b0 0b 39 e1 3d ee 0a 0a 3e 54 b3 8e bd 6e 17 76 3b
       0.10997208 0.13480732 -0.06967798 0.0037550586
0000c0 45 7c 44 bd 76 fb b7 3c 9f 6a 05 be a1 9a 97 bd
       -0.047970075 0.022458773 -0.13028954 -0.0740254
0000d0 ca 41 3c 3d bf e3 e1 bd c7 14 f3 3d 58 15 85 3e
       0.04596118 -0.11029767 0.11869197 0.25992846
0000e0 cd 86 56 3d 7a b4 bf bd 16 4c 21 3e 94 63 74 3c
       0.05237465 -0.09360595 0.1575168 0.014916319
0000f0 91 12 49 bd 80 12 47 3e 90 e5 73 3e 6f 48 60 3e
       -0.049089972 0.19440651 0.2381804 0.21902631
000100 d8 f0 01 be ce 2b 95 3c db 0f f3 3c 96 2d 88 3d
       -0.12689531 0.018209364 0.029670646 0.0664932
000110 2e 2c d3 bd 8c 3e 29 be 41 4f 06 3d 64 48 06 be
       -0.10311161 -0.16527766 0.032790426 -0.13113552
000120 0c ab 24 3d 72 44 e8 3c 2d 05 0f 3d 43 7d 02 3e
       0.040202186 0.02835295 0.034917045 0.12743096
000130 b0 4e b4 3d 82 6b d8 3d f8 93 e6 bd 4e 99 ad 3d
       0.08804071 0.105673805 -0.112586915 0.08476506
000140 a6 fe bb bd eb f6 22 be c6 24 62 ba 60 29 f2 bb
       -0.0917943 -0.15914504 -0.00086266955 -0.007390186
000150 26 17 4a 3e 9a ad 3f be 68 e6 65 be 47 bd b7 3d
       0.19735393 -0.18718567 -0.22451174 0.08971649
000160 8c 9a 35 bd 11 7a 48 3e c2 86 b7 bd bc ae 44 be
       -0.04433684 0.19577815 -0.0896125 -0.19207281
000170 66 c3 2d bd 0f 10 31 3c 3c b6 95 bd 10 06 1b be
       -0.042422675 0.010807051 -0.07310149 -0.15139031
000180 2d 00 5a 3d 6d ff d7 3c 7b eb 43 bd 62 14 cc bc
       0.053222824 0.026366914 -0.047831994 -0.024912063
000190 b5 d9 97 3d 4c ab c7 bd 64 47 32 3d 40 74 e3 3c
       0.07414571 -0.09749469 0.043525115 0.027765393
0001a0 37 10 5e be f2 54 7a be 4d c8 79 3d 1b 8c ec bc
       -0.21685873 -0.24446467 0.060982037 -0.028875401
0001b0 2a 42 c7 3d 3f a1 30 bb 16 df 98 3d bb fc 31 3e
       0.09729417 -0.002695158 0.07464425 0.17381565
0001c0 e4 e5 5f 3e d2 6b 56 be bb 74 d6 3c f5 e5 6f 3e
       0.2186504 -0.20939568 0.026178708 0.23427565
0001d0 1b 8a 24 3e b9 0c 0e 3e 2b f5 16 be 62 50 ba bd
       0.16068308 0.13872041 -0.14741962 -0.09097363
0001e0 dc 04 10 be 1b ba f2 bd f4 68 1f 3e 52 46 c6 bc
       -0.14064354 -0.11851903 0.1556738 -0.024203453
0001f0 d5 f2 29 3e 02 d1 06 be 47 72 6c be fe 95 8a bd
       0.1659654 -0.13165668 -0.23090468 -0.0676689
000200 14 9f 5b 3d 9d 3f 5e 3d 8d 21 bb bd c2 cf 09 3d
       0.053618506 0.054259885 -0.09137259 0.0336454
000210 d2 01 2e 3e 93 bc e6 3d 9d aa 65 bb 93 43 3e 3e
       0.16992882 0.112664364 -0.003504432 0.18580465
000220 a8 39 01 3e 62 2a c4 3d 42 ce e1 bd b0 1b 66 be
       0.1261965 0.095783964 -0.11025669 -0.224715
000230 40 70 ba bd 2c e7 6a bc f5 53 0b bc 4d f4 24 3e
       -0.09103441 -0.014337342 -0.008503904 0.16108818
000240 88 4b d7 3d d7 80 7f 3c 02 46 f8 3d b2 a8 03 3e
       0.10512453 0.015594683 0.12122728 0.12857321
000250 0c 4a 2e 3e 74 ab 45 3e 74 0f 74 bd 4d c3 16 3e
       0.17020434 0.19303685 -0.05958505 0.14722939
000260 6a 29 ad bc 08 21 a6 3d 6f 6d f3 bd 02 0a cd bd
       -0.021137912 0.08111769 -0.11886107 -0.100116745
000270 1c 88 b2 bd e3 4a 90 bd bf a4 12 3e bf 62 7a bd
       -0.08717367 -0.070455335 0.14320658 -0.061129328
000280 f5 59 da bd 5b 59 02 3e 95 f7 01 3e 3e ad 02 3e
       -0.10661689 0.12729399 0.12692101 0.12761399
000290 ae 41 2f be a2 b7 a1 3d 4d c9 a1 3b 47 f5 86 3d
       -0.17114899 0.07896353 0.004937327 0.06589752
0002a0 ce 15 f1 bd d0 7b ab bd c4 2c a5 bc e2 42 88 3d
       -0.11771737 -0.08373225 -0.020162947 0.06653382
0002b0 99 9a ad 3d bc d0 18 3e 8d f7 8e 3e 8d 6d f0 3d
       0.08476753 0.14923376 0.2792324 0.11739645
0002c0 1a ce 0d 3d 16 c0 87 bd 8d f5 fb bd ec c6 5b 3e
       0.034620382 -0.06628434 -0.123026945 0.21462601
0002d0 b2 c3 23 ba 61 f0 88 bc 41 c2 2b be 12 10 49 bc
       -0.00062471174 -0.016716184 -0.1677332 -0.012271898
0002e0 08 23 a1 bd 89 a1 44 3e f5 5b ce bd ac 56 0c be
       -0.0786801 0.19202246 -0.10076133 -0.13704938
0002f0 0f da 71 bd 64 3f 23 be 11 b4 e3 3d 65 1c 15 3d
       -0.059045848 -0.1594215 0.11118329 0.036404032
000300 22 f2 a6 bd 4a bf e2 bb b4 11 32 3e 6b 43 43 bd
       -0.08151652 -0.006919776 0.17389566 -0.047671717
000310 b9 b8 2b 3e e1 11 17 3e ca 42 3a 3e 54 24 18 be
       0.16769685 0.14752914 0.1818954 -0.14857608
000320 8f c0 23 3b c4 7a 96 bd aa 58 2f 3e 84 28 bc bd
       0.00249866 -0.073476344 0.17123666 -0.09187415
000330 02 66 84 3d 24 93 49 3c 9f 3a 6f 3d 64 f9 8a 3d
       0.06464769 0.012303147 0.058405515 0.06785849
000340 0f a8 d2 3d 0d f0 12 3c 96 ee b2 3d 03 a3 46 3e
       0.10285961 0.008968365 0.08736913 0.19398122
000350 c7 26 6d bd f7 37 6b 3e 85 79 36 3e b7 6d 36 3e
       -0.05789831 0.22970568 0.17819794 0.1781529
000360 28 ef 24 3e 25 72 e0 bd 03 c6 11 bd 24 97 53 3e
       0.16106856 -0.10959271 -0.03558923 0.20663124
000370 b2 09 39 be 72 99 cc 3d ee 13 41 be c8 66 47 be
       -0.18070105 0.09990205 -0.18855259 -0.19472802
000380 f7 53 5c 3d 21 15 c0 bd bb 18 d2 bb 79 c5 6b 3d
       0.053791013 -0.0937903 -0.0064116395 0.05756137
000390 14 57 c9 3d 33 cd 94 3e e7 53 44 3d c2 e2 ec bd
       0.09831062 0.29062805 0.047931578 -0.11566688
0003a0 de e0 f5 3d 8d f5 9d bd 4a 16 81 3d d1 61 76 3d
       0.12005781 -0.07712851 0.063030794 0.06015188
0003b0 76 3a f2 bd b0 ec 7d 3d 52 5d e2 3d 49 30 b5 bd
       -0.11827557 0.0619933 0.11052956 -0.088471
0003c0 eb 08 47 be 28 54 81 bd 09 ef 4a bd 20 8c ca bd
       -0.19436996 -0.0631488 -0.049544368 -0.09890008
0003d0 a2 04 04 be 49 7b 7c bd 60 ff 8c be 96 d7 8d be
       -0.12892392 -0.06164101 -0.27538586 -0.27703542
0003e0 41 9c 4a be f3 46 ff 3d 0d 55 0e 3e f6 35 16 be
       -0.19786169 0.12464704 0.13899632 -0.14669022
0003f0 66 60 92 bd 4b 44 b4 3d 0d 0d 8c 3d 72 1a 85 bd
       -0.07147293 0.08802088 0.06838427 -0.06499185

conv1.bias f4 [16]
000000 4b cd 2a be 7a 98 18 3e 90 7b 11 bd 0f f6 ff bd
       -0.16679876 0.14901915 -0.03551823 -0.12498104
000010 af 67 8a bd db 33 e4 bd 92 fe a5 bd 91 c8 e0 be
       -0.06758057 -0.11142703 -0.08105196 -0.4390302
000020 f0 81 3b 3e 5c 6a 47 be 46 4f d8 bc 01 ce 15 3e
       0.18311286 -0.19474167 -0.026404988 0.14629366
000030 37 1f 8c bd 66 11 6a be de 91 94 3d ef ad 29 bc
       -0.06841891 -0.228582 0.072543845 -0.01035641

conv2a.weight f4 [16, 16, 3, 3]
000000 dc b2 87 bd 49 62 94 3d e0 b1 4f bd 8b 7a 05 bd
       -0.066259116 0.07245309 -0.050706744 -0.03258757
000010 60 93 8c bd 4f fc 9b 3d e0 fd 81 3c 11 b5 8f 3d
       -0.06864047 0.076164834 0.015868127 0.070169576
000020 90 50 b2 3b 92 87 39 3d 30 f7 d9 bc 5a 27 88 bd
       0.0054417327 0.045295306 -0.026607126 -0.06648131
000030 78 2c 5b 3c 50 84 f3 bb 40 db 09 bc 46 a2 27 bd
       0.013377301 -0.0074315444 -0.00841409 -0.04092624
000040 40 1e e2 3a 00 0d c4 3c 44 45 f6 3c a4 7b 89 bd
       0.0017251447 0.02393198 0.030062325 -0.06713036
000050 b0 e7 24 3d b8 66 0c 3c 72 6c 6b 3d 9a 39 71 3d
       0.040260017 0.008569412 0.05747647 0.058892824
000060 0b 67 86 bd 07 e5 a3 3d 9f d7 a7 bd 8a 38 44 3d
       -0.06562623 0.08002668 -0.08195423 0.047905482
000070 10 32 c0 3b 9e 85 21 3d e3 94 38 bd 5a 35 4d 3d
       0.005865343 0.039434068 -0.045063864 0.05009971
000080 26 e7 28 bd 02 da 96 bd 4c b7 e4 3c 02 d5 3a 3d
       -0.041236065 -0.073658004 0.027919434 0.045613296
000090 cd 2c a9 3d d8 b1 0e bc 7d 2d a4 3d 12 49 5b 3d
       0.08260498 -0.008709393 0.08016489 0.053536482
0000a0 00 4a 29 bd 8e a4 83 bd 06 71 3f 3d 20 02 3b bd
       -0.041330338 -0.06427871 0.046738647 -0.045656323
0000b0 5e 91 1c 3d 4e 2a 92 bd ca 06 79 3d 7c 9b cc 3c
       0.03822457 -0.07136975 0.06079749 0.024976484
0000c0 68 f6 1c bc 88 8b 1c 3d d8 02 73 bd 54 3c 95 bc
       -0.009580232 0.038219005 -0.059328884 -0.018217243
0000d0 80 28 56 3a 46 3b 45 bd bc 6f ae bc a0 33 13 bd
       0.0008169487 -0.04815223 -0.021293513 -0.035937905
0000e0 c9 a6 a2 3d c9 fc 90 3d 59 32 93 3d f9 7d 8b 3d
       0.07941968 0.07079465 0.071873374 0.06811137
0000f0 db 72 a3 bd 84 5a e4 3c 8c 9f fb 3c 58 5c 7a bd
       -0.07980891 0.027875192 0.030715726 -0.061123222
000100 38 5b 0a 3d 93 36 39 bd 60 1c 59 3c 84 1e e2 3c
       0.0337784 -0.04521806 0.013251394 0.027602442
000110 75 44 93 3d 88 11 33 bd b8 46 86 bd 27 e9 9d 3d
       0.071907915 -0.04371789 -0.06556457 0.07710486
000120 e0 47 0f 3d 76 e7 25 3d 60 bc f5 3c 20 a3 f1 bc
       0.034980655 0.04050394 0.02999705 -0.02949673
000130 1e 54 4d 3d 74 ff 94 bd 80 01 3e 3c d6 4b 1a 3d
       0.05012905 -0.07275286 0.011597037 0.03766998
000140 d6 36 69 3d b0 73 2a bd 23 b4 66 bd 34 e2 ff 3c
       0.05693706 -0.041614234 -0.056324136 0.031235792
000150 90 89 87 bd b4 d5 8d bd d2 7b 99 bd 3e 86 25 bd
       -0.06618035 -0.06925526 -0.0749432 -0.040411226
000160 50 4e 82 bc a6 22 4a bd 1e 53 10 bd 84 1f 97 bd
       -0.015906483 -0.04934945 -0.035235517 -0.07379058
000170 62 cc 51 3d 64 48 9c bc db 5c 57 bd 54 bc b1 3c
       0.051220305 -0.019077487 -0.05257879 0.021696247
000180 b8 37 7f bd 16 ee 6e 3d a2 45 44 3d 53 b7 a7 bd
       -0.062308997 0.058332525 0.04791797 -0.08189263
000190 d2 f6 85 bd 33 11 61 bd 3e c6 38 bd 60 7a 2a 3c
       -0.06541218 -0.054948043 -0.045110933 0.010405153
0001a0 d0 c3 a8 bd a0 0d 7d bd c0 e1 1b 3d f6 94 df bc
       -0.08240473 -0.061780572 0.03805709 -0.02729271
0001b0 fe d2 07 bd 78 30 8d bd a8 58 0a 3d 40 d4 c0 3b
       -0.033160202 -0.0689401 0.033775955 0.005884677
0001c0 86 ef 03 bd eb 06 51 bd 30 2f 91 3c 7c bf b9 3c
       -0.03221085 -0.051031988 0.017722696 0.022674315
0001d0 2a 81 17 3d fc df ca 3c 78 46 50 bc 53 1d 84 bd
       0.036988415 0.024765007 -0.012712114 -0.06450906
0001e0 b2 4b 59 3d 80 42 3b ba 86 d8 62 bd 65 2e 93 3d
       0.053050704 -0.0007143393 -0.055382274 0.071865834
0001f0 46 4f 3e 3d c8 21 86 bd bb 77 2a bd 80 50 e8 bc
       0.04646232 -0.06549412 -0.04161809 -0.028358698
000200 c8 0b 45 bd f0 65 1f 3d 58 81 73 bd c1 9c 9e 3d
       -0.04810694 0.038915575 -0.059449524 0.07744742
000210 b6 15 0d bd 0e 7b 49 3d 20 fc 39 3b 88 1d 16 bd
       -0.034444533 0.04918962 0.0028379038 -0.036649257
000220 c2 ef 63 3d 73 39 82 bd e3 97 34 bd 40 a6 23 3c
       0.055648573 -0.06358614 -0.044090163 0.009988368
000230 b3 62 87 3d 00 3f 12 bd 30 d9 4f bd a0 e9 59 bd
       0.06610622 -0.035704613 -0.050744236 -0.053201318
000240 6e 7c 16 bd 1c d1 eb bc f0 01 9f bc 03 2e 42 bd
       -0.03673976 -0.028786235 -0.019410104 -0.04740716
000250 3c 5d d5 3c 80 6a 31 3a 30 04 5f bd 63 ec 42 bd
       0.026045434 0.0006767884 -0.054447353 -0.047588717
000260 5c 8e 90 3c c0 08 9c ba f2 93 71 3d a8 fa 4e bc
       0.017646007 -0.0011904463 0.058978982 -0.012633003
000270 e3 41 8a bd 53 74 7c bd 36 61 c8 bc ec 31 97 bc
       -0.06750848 -0.061634373 -0.024460416 -0.018456422
000280 c0 d0 1b 3c 1c 1a 99 bc 40 e3 fb 3c 3c 0b e3 bc
       0.009510219 -0.018689208 0.03074801 -0.027715318
000290 e2 85 7a 3d cc cc 9c 3c 4c e0 d1 bc 29 19 98 3d
       0.061162837 0.019140624 -0.025619648 0.07426674
0002a0 dc 47 ae 3c 7b f7 67 bd 86 f7 3d bd 6a 05 56 3d
       0.0212745 -0.0566325 -0.046378635 0.052251257
0002b0 e2 e4 1b 3d 6b 41 85 3d 10 c2 d1 bb 4e bc 6e 3d
       0.038060077 0.06506618 -0.006401308 0.05828505
0002c0 1e b4 29 3d 9c 1e d3 3c 1c 00 9e bc 4d 85 a4 3d
       0.04143154 0.025771432 -0.019287162 0.080332376
0002d0 a0 25 8a 3c 2c 23 b0 bc 40 4b 9b ba 0b c6 a7 3d
       0.016863644 -0.021501146 -0.0011847988 0.081920706
0002e0 c2 41 65 3d 00 5c ca bb d3 50 a7 3d 3e e4 15 3d
       0.055970915 -0.006175518 0.08169713 0.03659462
0002f0 50 bb 35 bd 86 51 9b bd aa 5c 46 3d 89 0e a0 3d
       -0.04436809 -0.07583909 0.048428215 0.07815272
000300 8b de 46 bd 82 31 0c 3d 00 7f 68 3b 50 f7 91 bc
       -0.048552077 0.0342269 0.0035476089 -0.017818123
000310 cc 9f b9 bc 40 eb bd 3c 84 7f 96 3c 1e 8a 66 3d
       -0.022659205 0.023183465 0.018371351 0.056284063
000320 1c e8 f9 3c 82 53 1b 3d 07 8e 96 3d 84 92 d4 3c
       0.030506186 0.037921436 0.07351308 0.02594877
000330 68 ac 4a 3c e0 88 f8 bc 8a 54 7a 3d 60 a2 49 3c
       0.012370206 -0.030338705 0.06111578 0.01230678
000340 42 03 5c 3d bd cd a4 3d 30 ae 98 bc 46 55 70 3d
       0.053714044 0.08047054 -0.018637747 0.058675073
000350 e4 a2 8a bc c1 03 9a 3d b9 54 86 3d 2c b1 f4 bc
       -0.016923375 0.07520247 0.06559128 -0.029869638
000360 60 dd 43 3b 1e 10 15 bd 23 0d 0a bd c0 37 8a bc
       0.0029886588 -0.036392324 -0.033703934 -0.016872287
000370 80 ef 14 ba 10 f9 ed bc eb 1b a1 bd a0 72 4e bd
       -0.000568144 -0.029049426 -0.07866653 -0.050402284
000380 b0 58 e9 bb 8c ed d9 bc f2 86 7d 3d 43 ba 8a 3d
       -0.007121168 -0.026602529 0.061896272 0.06773808
000390 62 73 59 3d 5e 11 17 3d 5e 4c 87 bd 65 3d a1 3d
       0.053088553 0.036881797 -0.06606363 0.07873038
0003a0 a8 64 96 bd 6c 6e e0 bc 56 3c 70 bd ac 7c f5 3c
       -0.073434174 -0.027396403 -0.05865129 0.029966675
0003b0 af 03 8e bd 83 46 28 bd a0 d1 58 bd 10 d0 51 bd
       -0.06934296 -0.04108287 -0.05293429 -0.051223814
0003c0 3b 57 1f bd bb c4 a7 3d 30 09 df bb a0 18 d0 3c
       -0.03890155 0.0819182 -0.006806515 0.025402367
0003d0 07 6b a9 bd 07 be 97 3d ac a7 94 bc d7 a0 9c bd
       -0.08272367 0.07409292 -0.018146358 -0.07647865
0003e0 aa 3b 6b 3d c0 96 b8 bc e5 fc 9a 3d 36 d8 67 bd
       0.057429947 -0.02253282 0.07567767 -0.05660268
0003f0 d7 73 9e bd c7 36 80 bd b2 db 13 3d 28 1e 19 bc
       -0.077369384 -0.06260448 0.03609819 -0.009345569

conv2a.bias f4 [16]
000000 20 22 0d bd 81 31 8c 3d c8 57 07 bc d2 4c 54 3d
       -0.034456372 0.068453796 -0.008260675 0.051831074
000010 f3 bb 7b bd b8 86 3e 3c 56 6f 77 3d c0 79 97 3b
       -0.06145854 0.011628799 0.060408913 0.004622668
000020 3c 34 ef bc c8 b0 0b bd 76 01 69 3d 50 a5 06 3d
       -0.029199712 -0.03410414 0.05688616 0.032872498
000030 00 1c b7 3b e6 bb 49 3d ab 99 31 bd d4 97 81 bd
       0.0055880547 0.04925146 -0.04335944 -0.06327787

conv2b.weight f4 [16, 16, 3, 3]
000000 1d ae 25 bd b1 17 d7 bc 3c 49 d8 bd de 02 b0 bd
       -0.04044925 -0.026256414 -0.10560843 -0.08594297
000010 70 20 a2 bd 2b a9 57 bc 47 d0 ab 3d 77 1f 1c 3d
       -0.07916343 -0.013162891 0.08389335 0.038115945
000020 82 05 98 bd 76 47 08 bd 2b 43 c1 3c 86 3f 30 bd
       -0.074229255 -0.033271275 0.023591598 -0.04302933
000030 91 ef 8d 3d 1a 48 0c 3e 39 b0 b7 3d 50 5f eb bd
       0.06930459 0.1369938 0.08969159 -0.11492789
000040 be 16 eb bd ae 26 83 bd 5a d4 d4 3c a2 7f 09 3a
       -0.11478947 -0.06403862 0.025980163 0.0005245154
000050 90 6d b6 bd 15 fe 93 bb 98 ae a6 3d 52 31 17 3c
       -0.08907616 -0.004516373 0.0813877 0.0092280675
000060 02 1f e0 3b 1e e0 58 bd 19 54 c7 3d 9a b1 56 bd
       0.006839634 -0.05294811 0.09732837 -0.052415468
000070 45 4e 94 3b c6 95 0e be af 56 8d bd 65 6e b4 bc
       0.004525932 -0.13924322 -0.06901299 -0.022025296
000080 29 d8 8d bd d1 95 6b 3d d2 ec c4 3d ff 47 3e 3d
       -0.06925995 0.057515923 0.096154824 0.04645538
000090 61 3d dc bc 09 c9 98 3d 8c b9 fb bd 7f 6a 8c 3d
       -0.026884736 0.074602194 -0.1229125 0.0685625
0000a0 fc 2b ac 3c 3f f8 d3 3d cc 94 96 bd 18 78 97 bd
       0.021017067 0.103500836 -0.073525995 -0.07395953
0000b0 c2 dc eb bc b5 b6 2e 3d ed a5 bb 3b 3a cf 00 3d
       -0.028791789 0.04265471 0.005726567 0.031447627
0000c0 20 f7 83 3d bd f8 96 3c c2 00 90 bd e9 8a 12 be
       0.0644362 0.018429155 -0.070313945 -0.14310803
0000d0 f0 87 98 3c cf 1a 4c 3d 3a 70 6d 3d 0f 92 37 3d
       0.018619508 0.049830254 0.057968356 0.044817027
0000e0 ba e2 d4 bc ef 23 3b 3d 71 3c 3c bd fb f7 85 bb
       -0.025987018 0.045688566 -0.04595608 -0.0040883995
0000f0 60 2d 98 bd 06 b6 52 3d aa f3 0d bd 92 92 33 bc
       -0.074305296 0.051443122 -0.034656204 -0.010960238
000100 07 dd 67 3c dd 8f 55 3d 44 7a d2 3b 59 67 5e bd
       0.014151818 0.05213915 0.0064232666 -0.05429778
000110 ba a4 d2 3d dc 61 e2 bc 51 6b 8b bd c9 68 3b bd
       0.10285325 -0.027634554 -0.06807578 -0.045754228
000120 47 ea 91 3d 2c 94 98 bd ed 7d 5a bd ef 76 b7 bc
       0.07124763 -0.074501365 -0.05334275 -0.02239558
000130 05 87 e1 bc 0e 4f 32 ba 79 35 d3 3b c1 f4 c6 3b
       -0.027530203 -0.0006801941 0.0064455834 0.0060716574
000140 96 f3 94 3d 39 cb 2e bc e4 ff 8d bd f4 be 09 bd
       0.07273023 -0.010668569 -0.06933573 -0.033629373
000150 0a 3c 36 3d 68 35 02 be 8d 21 2b bc d4 8e c3 3c
       0.04449085 -0.12715685 -0.010445011 0.023871817
000160 cf 15 f3 3d 27 7e 53 3d ef 2e 7f 3d ed 5d a4 bc
       0.11869394 0.05163398 0.06230062 -0.020064319
000170 79 26 04 bd ce a5 76 3d d1 7d 65 bb 17 93 0b 3b
       -0.032263253 0.060216717 -0.003501762 0.002129739
000180 84 8f 32 bd 10 0b 8a 3c 6a 74 5d 3d d3 e1 97 bd
       -0.0435939 0.016850978 0.0540661 -0.074161194
000190 af ce ed bc b5 0d 06 be b6 e5 0f 3d 31 8e ed bc
       -0.029029218 -0.13091166 0.03513118 -0.028998466
0001a0 46 f1 8f 3d 09 3c 84 3d 7d bc 14 3b d4 5d eb bc
       0.07028441 0.06456763 0.0022695356 -0.028731264
0001b0 76 3a 80 bd 2d 72 a4 bd fd 7d 75 bd d5 09 b5 3d
       -0.062611505 -0.0802959 -0.059934605 0.08839766
0001c0 92 11 1c bd 52 ff 43 ba 7d 3e b8 bc 98 4a 7e 3d
       -0.038102694 -0.00074767054 -0.022490734 0.062082857
0001d0 f9 19 33 bd 38 f2 06 be 22 26 ab bd 63 e7 f5 3c
       -0.04372594 -0.13178337 -0.08356883 0.03001756
0001e0 8d 7c 97 3d 10 b0 99 3d 85 13 21 3d 51 96 4b bc
       0.07396803 0.075042844 0.039325256 -0.012425975
0001f0 34 0b fc bc ba 7f bb 3d fb a0 48 bd 32 d2 9c bd
       -0.03076706 0.09155221 -0.048981648 -0.07657279
000200 83 9b c6 bc 97 88 25 3b b6 97 34 bd e0 21 97 bd
       -0.024244076 0.0025258416 -0.044089995 -0.07379508
000210 7a 77 8f 3d 28 b0 7a 3d 3e 84 e4 3d c1 3d d1 bc
       0.0700521 0.061203152 0.11158036 -0.025542142
000220 0f 5b 1c 3d da f4 64 bd 99 2b 9f bd 6c 8e ab 3c
       0.038172778 -0.05589757 -0.077719875 0.020941935
000230 6d fd 88 3c b2 92 b2 bd cf ae d5 bd 10 e3 79 bd
       0.016722405 -0.08719386 -0.10433733 -0.06100756
000240 0e 01 73 3d ae b0 8c bd 69 25 27 bd e3 a1 54 bd
       0.059327178 -0.068696365 -0.04080716 -0.0519122
000250 b8 fe ae 3d fa 0c ea 3d 6d 8d b8 bc 89 d5 6b bd
       0.085446775 0.11428256 -0.022528375 -0.05757669
000260 8a 1d a8 3d ef dd 06 bd 59 ad 96 bd 22 88 08 be
       0.08208759 -0.032926496 -0.07357282 -0.1333318
000270 6a a5 1a bc 34 4a 0d 3a e5 ec 10 3c c1 c7 b7 bd
       -0.009438852 0.000538978 0.008845543 -0.08973647
000280 d7 d4 c4 bd e4 1d 9f bd 28 ac 81 3d c3 84 05 be
       -0.096109085 -0.07769373 0.06331664 -0.13038926
000290 fe 12 95 bd 6c 11 eb bc 03 48 f4 bc 5d ff 47 bc
       -0.07279013 -0.02869483 -0.029819494 -0.012206879
0002a0 fd 66 7a 3d 6e 95 43 3d 4a 9c ce 3c a4 ab 4f 3c
       0.061133374 0.04774993 0.025221009 0.0126752
0002b0 54 4d 56 3c 27 a2 03 be c6 ed d8 3c 3b d7 9f bd
       0.01307996 -0.12854825 0.026480567 -0.07804724
0002c0 66 8d 44 bd ff c7 35 bd 4c 0f 6c 3d 86 08 ff bc
       -0.04798641 -0.044380184 0.057631776 -0.031131994
0002d0 a4 3a 04 bd 23 66 23 bd 9c b9 6f 3b 02 d3 69 3d
       -0.032282487 -0.039892327 0.0036579138 0.057086
0002e0 45 d0 df bc a6 4f 2c 3d b8 72 e5 3d 17 0a 46 bd
       -0.02732099 0.042068146 0.112035215 -0.048349466
0002f0 10 81 bf 3d c1 12 8b 3d b2 b6 0b bd f6 e3 91 bd
       0.093507886 0.067906864 -0.03410978 -0.07123558
000300 21 fa c8 3d 6b 4c b3 3d 12 b9 1a bb 84 a8 34 bd
       0.09813333 0.0875481 -0.0023608846 -0.04410602
000310 08 59 37 bd b2 1f d6 3c 1e 63 96 3d 71 a0 8f 3d
       -0.04476264 0.02613816 0.07343124 0.07013024
000320 78 97 be 3c 45 01 16 3e ea f8 76 3d d9 98 d0 3b
       0.023265585 0.14648922 0.060295977 0.006365877
000330 e2 36 43 bd e9 73 ef bc 0e 09 04 bc 2d af 26 3d
       -0.047659762 -0.029230075 -0.008058799 0.040694404
000340 f2 1d cb ba 9f 13 c4 39 77 8a c3 3a 8d cd 7b 3d
       -0.0015496595 0.00037398652 0.0014918585 0.061475325
000350 85 6a 9e 3d 11 dc f6 bc 6d c1 34 bd d7 2f 90 bd
       0.07735161 -0.030134233 -0.044129778 -0.07040375
000360 67 c6 6c 3d 7a 44 36 bc 79 a8 04 be 84 90 75 bd
       0.0578064 -0.0111247245 -0.12954892 -0.059952274
000370 25 3a ad bd 2e 94 96 bd ce e5 08 3d 93 2b 5b 3d
       -0.08458356 -0.07352482 0.033422284 0.053508352
000380 b3 e8 92 3b 0e 02 5e bd 8c cb d0 bd bb fc a7 bd
       0.0044833063 -0.05420118 -0.101950735 -0.082025014
000390 00 cc 98 3d fb 8c 60 bd 59 cd ab bd 17 f1 41 bd
       0.07460785 -0.05482195 -0.08388776 -0.04734906
0003a0 fa 7a 46 bd 75 43 59 3d 8a 8d 42 3b d0 1b 0b bd
       -0.048457123 0.053042848 0.0029686415 -0.03396207
0003b0 73 ff 03 bd 39 b1 22 ba b5 ff c4 3c 25 f1 86 bd
       -0.032226037 -0.0006206218 0.024047712 -0.065889634
0003c0 f1 e1 8f 3d 7e fd 2b bc 04 c9 94 3c dc 3a 15 3d
       0.07025517 -0.010497449 0.018162258 0.036433086
0003d0 7d de 94 bd 38 5f 07 be 00 6e 03 3c 82 b9 06 bd
       -0.07268999 -0.13219917 0.0080218315 -0.032891758
0003e0 6c 4a 47 bd 5e 0b 41 3d f5 47 2d 3d d1 a5 d3 3b
       -0.04865496 0.04712998 0.04230495 0.006458976
0003f0 c8 5c b0 bc f4 e4 f2 bd 4f a6 a5 bd 18 02 2f bd
       -0.021528617 -0.118600756 -0.080883615 -0.042726606

conv2b.bias f4 [16]
000000 0f 04 8c bd b9 9f 90 bc 72 5d 03 3d b8 d1 a4 bd
       -0.068367116 -0.017654287 0.03207154 -0.08047813
000010 98 8c 8b bd 5d ee 54 3c 87 e7 02 3c 6f 6c f9 3c
       -0.068139255 0.012996283 0.007989771 0.030447213
000020 01 cb e8 bb c8 49 8a 3d b7 00 55 3d cb e4 a2 bd
       -0.007104278 0.06752354 0.052002635 -0.07953795
000030 b5 70 95 3d 73 0e c7 bd 24 a5 9d 3d e9 70 d7 3d
       0.07296888 -0.09719553 0.07697514 0.10519583

conv3.weight f4 [32, 16, 3, 3]
000000 5a 8c dd 3d ea 49 cf 3c d5 a4 4e bd 22 1e 81 3d
       0.108177856 0.0253038 -0.050450165 0.063045755
000010 31 c7 45 3d be 0b 9f 3c 6c 42 a5 3d 40 3d 06 bc
       0.048285667 0.019414779 0.080693096 -0.008193314
000020 55 6f c4 bc dd 9b 50 3b 84 58 21 bd c5 67 d0 bb
       -0.023978868 0.0031831183 -0.039391056 -0.0063600265
000030 02 dd 00 3d 00 87 d5 3c 24 67 d8 3d 85 20 67 3d
       0.03146077 0.02606535 0.105665475 0.056427497
000040 40 b1 15 3d 09 38 c4 bd e0 8a 9e 3d cb ec da 3c
       0.036545992 -0.09581 0.07741332 0.02672424
000050 c0 70 2b be f1 53 c5 bd 13 73 c8 bb 26 48 83 bb
       -0.1674223 -0.09635151 -0.0061172335 -0.0040064035
000060 e7 c4 df 3d e5 74 8b 3d c4 6e a5 3d 70 1f 81 bd
       0.10926228 0.06809405 0.080777675 -0.06304824
000070 f3 f7 e2 bd da a3 97 39 d3 fd a8 bc c9 01 58 bd
       -0.11082449 0.00028923043 -0.020628845 -0.052736077
000080 33 22 f4 bd c3 b9 22 3d 6f c0 e5 3d 49 8c 8c 3d
       -0.119205855 0.039727937 0.112183444 0.06862695
000090 d7 06 98 3d 60 fc 85 3d 9a ae 9e bd b3 28 9e bc
       0.074231796 0.06542277 -0.07748146 -0.019306516
0000a0 81 a5 0a 3d 23 af d3 3d ca 00 c4 bb 80 56 e0 bc
       0.033849243 0.10336139 -0.0059815394 -0.027384996
0000b0 39 6c d8 bc 19 8a 93 3d 55 2f 12 bb 9d 20 9a bd
       -0.026418792 0.072040744 -0.0022306044 -0.07525752
0000c0 7e 90 50 bd 26 bb 37 3c 1c 4f 96 3d 9b 28 f6 bc
       -0.05091905 0.011214053 0.07339308 -0.03004866
0000d0 1a 21 81 3d 33 e3 ca 3c 10 3e a6 3c 4d bd ba 3c
       0.06305142 0.02476654 0.020293266 0.022795344
0000e0 e4 ec 77 3a 88 5c 34 3d 72 22 a3 bd 12 8c aa 3d
       0.00094576017 0.044033557 -0.07965554 0.083274975
0000f0 28 96 d7 bb 00 b6 1e 3d 56 d3 5e bd b9 9e cd 3b
       -0.0065791793 0.038747787 -0.054400764 0.0062750247
000100 98 9b d5 3d 92 4b 5b 3d 88 f6 22 3d 2c 81 85 bd
       0.10430068 0.053538866 0.03978589 -0.06518778
000110 a1 1c 18 3d 95 96 c2 3d b6 b5 30 3d e4 f2 ed bd
       0.037136678 0.095013775 0.043142043 -0.11618593
000120 30 23 3b bc 5b e4 0c bd f6 1d 93 bd c7 af 73 3d
       -0.011421964 -0.034397464 -0.07183449 0.059493806
000130 ff ef d7 bc b9 b6 8e 3d bf 3a 62 3c 6b 50 e0 3c
       -0.026359556 0.06968445 0.0138079515 0.027382096
000140 57 b2 5e 3d 7f 8c c5 bc 25 80 27 3d 1f ae 02 bd
       0.054369297 -0.024114845 0.040893693 -0.031904336
000150 fa d9 15 bd d6 7e f7 bd 6b 1e 91 bc e1 23 a0 3d
       -0.03658483 -0.12084739 -0.0177147 0.07819343
000160 08 a3 a2 3c bd 8d da 3d 61 0c cc bc 66 3b f9 bd
       0.01985313 0.10671566 -0.024908246 -0.121695325
000170 48 57 29 be f3 82 d8 3d 28 19 8d 3c bf 79 df 3b
       -0.16537201 0.105718516 0.01722391 0.006819933
000180 f7 01 fc 3c 55 7f 18 3e ec b0 ac 3d e5 5e 3b 3b
       0.030762656 0.14892323 0.08432183 0.0028590497
000190 b1 3d ff bd 9e b9 fe bd 3b 5a e4 bc 0a 24 91 3d
       -0.124629386 -0.124377474 -0.027875056 0.07086952
0001a0 8e ce 8a 3d b0 db e4 bc 4a 93 9f bc cc d1 66 3c
       0.067776784 -0.027936786 -0.019479413 0.014088105
0001b0 d1 0b 82 bd c9 24 0a be 9d a9 d8 bc dd b7 30 3c
       -0.0634991 -0.13490595 -0.026448065 0.010786024
0001c0 01 99 a5 3d 57 7c 39 bd f5 5d 70 3c b4 2c 2e 3c
       0.08085824 -0.045284595 0.014670839 0.010630775
0001d0 b8 9a 45 3d 1b 13 19 bd 1b 30 d6 3d a3 9f 1c 3e
       0.048243254 -0.037371736 0.10458394 0.15295272
0001e0 38 ec 3f bd 3d 82 08 3c 69 6c 01 be 01 c5 6c 3b
       -0.046856135 0.0083318325 -0.12639011 0.0036128166
0001f0 4e 7d 16 3d dd 15 40 3c f2 30 51 3a 3c 2c be bd
       0.036740594 0.011723963 0.00079800107 -0.09285781
000200 75 6a 84 bd 54 d4 fb 3b b5 0a 03 bd c8 57 fc bc
       -0.064656176 0.0076852236 -0.031992633 -0.030803576
000210 55 13 09 3d 04 2d 87 3d 4b d5 ce 3d 3e 9e a4 bb
       0.033465702 0.06600383 0.10099276 -0.0050237468
000220 1a 69 0a 3d 10 2f 27 3d 56 78 9f 3d f7 48 79 3d
       0.03379164 0.040816367 0.07786624 0.0608606
000230 1a e1 68 bd 47 16 77 bd 80 51 0b bd a1 c3 4b bb
       -0.0568553 -0.06032398 -0.03401327 -0.0031091946
000240 0f 59 b4 3c 0f cf 54 3d 03 da a3 bc 66 f3 36 3d
       0.022015123 0.05195528 -0.020001417 0.044665717
000250 fc b0 90 3d 96 d3 15 3d 01 ae 01 be 14 82 a5 bc
       0.07065007 0.036578737 -0.12664033 -0.020203628
000260 65 a2 a7 bc d5 14 5b bc 7c 15 22 3d 0b 48 a5 3c
       -0.020463178 -0.013371666 0.03957127 0.020175954
000270 62 06 66 bd 6a 85 91 3d 76 ba 8f 3d 05 a1 cb bc
       -0.05615843 0.07105525 0.070179865 -0.024857054
000280 e0 d5 c6 bd 29 67 29 bd 72 fe 75 bd 48 e1 3a 3d
       -0.09708762 -0.041358147 -0.06005711 0.045625
000290 e1 08 c0 bc ac dd 80 bd 10 f7 9e 3c b2 eb b8 3d
       -0.023441734 -0.062922806 0.019404918 0.0902933
0002a0 cd 99 e1 bd d5 ee db bb 0d 5c bb bd 68 fb 50 3d
       -0.11015663 -0.0067118206 -0.09148417 0.05102101
0002b0 7e b9 43 3d ef cf a9 3c 0f 85 59 3d 8b 4f 95 3d
       0.04778432 0.020729033 0.05310541 0.07290562
0002c0 cd 12 cb bb 26 09 17 be 3d 85 b3 bd d8 40 f5 bc
       -0.0061973096 -0.14749584 -0.087656476 -0.029938146
0002d0 bb ca bb bd 31 3a 46 3d 51 48 12 3d 98 41 93 bd
       -0.09169527 0.04839534 0.035713498 -0.071902454
0002e0 f0 16 3d bd 0f b7 91 3c ca 32 48 3c de 87 41 bd
       -0.046164453 0.017787484 0.01221914 -0.047248714
0002f0 65 71 cb bd 87 f8 95 bd a3 6b 01 3e 15 b8 f7 3c
       -0.09933738 -0.073227935 0.12638716 0.030239144
000300 83 c2 00 be d7 a0 46 3d d9 4c 19 bd ca 81 64 3b
       -0.125742 0.048493233 -0.037426803 0.00348674
000310 f4 6e e1 3c 8e 6c 49 bd 2c f5 43 bc 5b 5d a0 3d
       0.027518727 -0.04917579 -0.011960309 0.07830306
000320 1a 77 0e bd a3 00 03 be fc e3 76 bc 5b c2 54 3d
       -0.034781553 -0.12793212 -0.015069004 0.051943164
000330 0a b7 96 3b 16 4a ac bc ab 20 70 3d e7 7d 72 bc
       0.0045994567 -0.02103142 0.058624905 -0.014800525
000340 9d 11 49 3d 28 c8 d7 3c 50 6f 8b bd 5b 12 7d bd
       0.049089063 0.02634056 -0.068083405 -0.061785083
000350 9a ad 4c bd 5a df 8f 3d f5 9d c9 3d 1e b2 4d bd
       -0.049970247 0.07025023 0.09844581 -0.050218694
000360 66 2a 9e bd 7f 2c c3 3d 39 bf 7e 3b f2 fd b0 bd
       -0.077229306 0.09529971 0.0038871302 -0.08642186
000370 61 df 26 3d 06 de 2a 3d f5 ac 38 be 51 23 89 bd
       0.040740374 0.041715644 -0.18034728 -0.06696189
000380 0c 9d 78 bd 7b 03 2c bd 58 f7 34 3d c7 23 45 39
       -0.060696647 -0.041995507 0.044181198 0.00018800712
000390 4c 76 5e 3d b0 6f 64 bd 22 98 c8 3d 02 d4 0a 3d
       0.054312035 -0.055770576 0.09794642 0.033893593
0003a0 f9 39 8c 3c ef da 4b 3d 21 34 18 3d 1c b5 8f 3b
       0.017117487 0.04976934 0.03715909 0.0043856036
0003b0 40 50 07 3d 34 0a 88 bd 98 2f 18 bc e3 05 86 3d
       0.033035517 -0.06642571 -0.009288691 0.065440916
0003c0 3f a2 2f be 42 da d1 bd ea 44 9e bd c7 f8 a3 bc
       -0.17151736 -0.102467075 -0.07727988 -0.020016087
0003d0 00 ea a3 3b a2 3f 24 bd 4f d3 61 3d b3 76 ce 3d
       0.00500226 -0.040099747 0.05513316 0.10081234
0003e0 16 21 ba 3d 1b f0 3d be b4 e1 1a bd b3 de d8 bc
       0.09088342 -0.18548624 -0.037812904 -0.026473379
0003f0 53 0d ba bc 6b 35 87 bc 2f 94 15 3c de 62 52 3d
       -0.022711432 -0.016504964 0.009129568 0.05136382

conv3.bias f4 [32]
000000 13 73 16 3c 7d 09 7d bd 48 a1 97 bd 13 58 07 be
       0.009182709 -0.061776627 -0.07403809 -0.13217191
000010 37 e6 8d 39 82 0f ea bb a1 22 7c 3c c8 c2 2f bd
       0.0002706514 -0.007142962 0.015389116 -0.042910367
000020 f1 63 7d be 0d a0 01 bd 5e a4 db bd 66 49 02 be
       -0.24745156 -0.031646777 -0.1072471 -0.12723312
000030 c1 f5 1c be 38 d1 05 3d 9c 01 a0 bd a1 8b 41 bd
       -0.15328123 0.03267023 -0.07812807 -0.0472523
000040 59 ab c9 bd e6 c3 b2 bd 9e 0f 0e be ba f5 66 bc
       -0.09847135 -0.08728771 -0.13873145 -0.014096672
000050 e0 ef dc bd 5a 94 e8 bc 4a da ff bd 07 56 e1 bd
       -0.1078794 -0.028391052 -0.12492807 -0.110027365
000060 59 6b 95 3c 62 5c 1d bb 12 46 dc bd f1 c2 a3 bd
       0.018239664 -0.0024011363 -0.10755552 -0.079961665
000070 cf 9e c2 ba 82 cb 03 3c 42 91 e8 bc e7 64 c8 3c
       -0.0014848354 0.0080441255 -0.028389577 0.024462176

conv4a.weight f4 [32, 32, 3, 3]
000000 a7 e0 42 3d 60 26 83 3a 66 ac 21 bd 6a f7 b6 bc
       0.047577526 0.0010005943 -0.039471053 -0.022334773
000010 40 45 65 bc c0 82 48 3a b4 24 05 3c 00 59 44 ba
       -0.013993561 0.0007648878 0.0081264265 -0.00074900687
000020 d1 c6 50 3d b2 24 39 bd 78 3b 53 bd 9a d9 60 bd
       0.050970856 -0.04520101 -0.051570386 -0.05489502
000030 5c fe 46 3c 8b ce 3e 3d ff d7 4b 3d b0 a3 3d 3b
       0.012145605 0.046583693 0.049766537 0.0028936677
000040 00 67 36 39 a7 7c 0e 3d be f7 f4 3c 34 05 32 bd
       0.00017395243 0.034786846 0.029903289 -0.043461993
000050 6c 28 8b bc d1 b6 5f bd d3 97 64 3d 03 b2 1d 3d
       -0.016987048 -0.054617707 0.055808853 0.038499843
000060 8e 99 a6 bc 08 7b 24 bc 00 52 d1 3a 41 af 42 3d
       -0.020336892 -0.010039099 0.0015969872 0.047530416
000070 8d 27 0e 3d 40 00 42 bd 30 4f 4a bc 7e 31 9a 3c
       0.034705687 -0.04736352 -0.012347981 0.018822428
000080 d1 43 4f 3d 1c 66 a3 bc 8a 11 f0 3c a8 65 b1 3b
       0.050601784 -0.01994615 0.029305238 0.0054137297
000090 38 78 c6 bc 36 62 9f 3c ec 85 0c 3c 2c 82 02 bd
       -0.024227247 0.01945601 0.008576851 -0.031862423
0000a0 08 a4 96 3b 40 d0 46 3b 00 85 0f bc ac b6 6a 3c
       0.004597191 0.003033653 -0.008759737 0.014325779
0000b0 2b 95 e5 bc 54 78 d0 bc c6 ba 80 bc ca 25 a2 3c
       -0.02802523 -0.025448002 -0.01571406 0.01979341
0000c0 50 25 89 bb 2a b6 63 bd 78 53 50 bc 40 4a 09 3b
       -0.004185356 -0.055593647 -0.012715213 0.0020948797
0000d0 04 7e 0c bd 70 44 60 bc 54 eb 64 3c 21 a9 3a 3d
       -0.034299865 -0.013688192 0.013972122 0.04557145
0000e0 39 6d 09 3d c0 2c d7 bc ae 74 2a bd 76 5f dd 3c
       0.03355143 -0.026266456 -0.04161518 0.027023058
0000f0 48 0c ab 3b 72 bc e7 bc 1e 97 e4 3c 9e a8 54 bd
       0.00521997 -0.0282881 0.02790409 -0.05191862
000100 52 1a cb 3c 0c 0c 7a 3c ad f3 55 3d 80 53 5d bc
       0.024792824 0.015261661 0.05223434 -0.0135086775
000110 e8 6f 1d bd 63 20 6f 3d 90 d6 4b bc 04 bd 6c bd
       -0.0384368 0.058380496 -0.012441292 -0.057797447
000120 aa f6 b0 bc 0b 23 41 3d 80 20 21 bd 8c 22 53 3c
       -0.021601994 0.04715256 -0.039337635 0.012886655
000130 f2 7b 6d bd ba 9d 91 bc de bc bb bc 70 b6 8e bc
       -0.05797953 -0.017775405 -0.022917207 -0.017420977
000140 bf 9c f6 bc 7e 5f 2f bd 16 05 97 3c 0a c4 db 3c
       -0.03010404 -0.042815678 0.018435042 0.026826877
000150 3c 30 27 3c ca 9f 8a 3c a3 5b 19 bd 0e f0 c4 3c
       0.010204371 0.016921896 -0.037440907 0.024040248
000160 4c 8b 7f 3c e1 1d 3b 3d 2a 7f f5 3c eb 0e 71 3d
       0.015597176 0.04568279 0.029967863 0.058852118
000170 62 4f d8 3c da e1 50 bd 41 fe 0e 3d 00 ce 09 bc
       0.02640504 -0.05099664 0.034910444 -0.008410931
000180 70 af 54 3b 6e c4 ce 3c b0 9b 34 3b ee 5c 9a bc
       0.0032453202 0.02524015 0.0027558617 -0.01884314
000190 d6 29 8c 3c a6 b7 bc 3c e6 cb b9 3c ca 88 c7 bc
       0.017109793 0.02303679 0.022680234 -0.024357218
0001a0 a7 9c 1c bd 60 9b 48 bd 51 fd 3d bd b2 ee 84 bc
       -0.038235333 -0.048976302 -0.04638416 -0.0162271
0001b0 3e b5 f5 bc 99 da 3e 3d ec 96 c2 bc b2 26 cf bc
       -0.02999365 0.04659519 -0.023753606 -0.025287006
0001c0 0c 26 1d bd 70 7f 07 bd 47 e2 0a 3d 91 7f 4b 3d
       -0.038366362 -0.03308052 0.0339072 0.049682204
0001d0 15 02 38 3d a8 97 28 bd 1c 8e a3 bc 3b 82 50 bd
       0.04492386 -0.041160256 -0.019965224 -0.050905447
0001e0 ea c3 fa 3c 7b 31 51 3d 42 7b 49 bd 69 74 2f 3d
       0.030610997 0.05107258 -0.049189813 0.042835627
0001f0 3e 85 eb bc e9 25 6c bd 6a 06 97 3c a6 86 5d bd
       -0.028750058 -0.05765334 0.018435676 -0.05408349
000200 28 44 01 bd 17 39 6b 3d 6c 13 4f bd d3 8b 1a bd
       -0.03155914 0.057427492 -0.05055563 -0.037731003
000210 2c 34 89 bc a5 d5 3d 3d 3f 82 21 3d 29 85 26 3d
       -0.01674851 0.046346325 0.039430853 0.040654335
000220 93 8f f4 bc 77 0f f2 bc 4b 7a 0b 3d 91 17 58 3d
       -0.029853618 -0.02954839 0.034052175 0.05275685
000230 93 59 30 3d 4a aa b5 3c 74 c5 82 bc d4 88 50 3c
       0.043054175 0.022175927 -0.015963294 0.012727935
000240 49 86 39 bd 3c a0 08 bc 99 e7 6f 3d d8 b5 8c 3b
       -0.04529408 -0.008338984 0.058570478 0.0042941384
000250 e5 ca 3a 3d b7 f7 20 3d 4b bc 6f 3d a7 fb 01 3d
       0.04560365 0.03929874 0.05852918 0.031734135
000260 4b da 60 bd a8 28 d0 bc 00 b2 d4 b9 31 78 52 3d
       -0.05489568 -0.025410011 -0.0004056841 0.051384155
000270 64 60 08 3c f4 cf 75 3c b8 6b ee 3b b6 32 ef bc
       0.008323763 0.015003193 0.0072760247 -0.029198986
000280 8a 01 70 bd 30 c6 7a 3b 64 68 a0 bc de 81 a2 3c
       -0.058595218 0.0038265102 -0.019581027 0.019837316
000290 ff 1e 06 3d c2 46 4a bd b2 97 a9 3c ba ee b5 3c
       0.032744404 -0.049383886 0.020702217 0.02220856
0002a0 1a 16 9a 3c fb fd 04 3d 6e ff 0b bd d0 f4 d5 bc
       0.018809367 0.032468777 -0.034179144 -0.026117712
0002b0 60 1f 0b bd 45 e5 5b 3d 4a c8 df 3c 30 c9 73 3b
       -0.03396547 0.053685445 0.027317185 0.0037198775
0002c0 46 9c af 3c a0 8b 52 bd 6d 52 54 3d 0d 11 3b bd
       0.021436822 -0.051402688 0.05183642 -0.045670558
0002d0 60 b9 3e bc fa df 1a bd 60 17 86 bb 5a c6 19 bd
       -0.0116408765 -0.037811257 -0.004092142 -0.03754268
0002e0 fc c1 d7 bc 40 f1 c2 bb 7b ae 2e 3d 03 ef 51 3d
       -0.026337616 -0.0059491694 0.042646866 0.05125333
0002f0 c0 5e d6 bc b2 b9 d0 3c fb 63 2d 3d cb 21 61 3d
       -0.026168227 0.025479171 0.042331677 0.054963868
000300 a5 4d 0f 3d 5b bd 17 3d 4b b8 58 3d ec b2 6b 3c
       0.034986157 0.037045818 0.05291013 0.01438592
000310 48 cb 40 bd a9 04 2e 3d fd b2 4d 3d 25 30 69 3d
       -0.047068864 0.042484913 0.050219525 0.05693068
000320 45 33 3a bd 5e 88 a3 3c 83 2e 41 3d 00 21 62 3a
       -0.04545905 0.019962486 0.047163498 0.0008626133
000330 ea 73 c9 3c 4a 8a d2 bc db 54 5e 3d 9e 95 6c bd
       0.024591405 -0.025700707 0.054280143 -0.057759874
000340 20 5d 81 3a de e5 56 bd 36 44 bd 3c 94 09 7a bc
       0.0009869672 -0.052465312 0.023103815 -0.015261073
000350 38 44 e0 3b 01 2d 1e 3d 3c 72 ab bc e3 98 29 3d
       0.00684407 0.038617138 -0.020928495 0.04140557
000360 2f 6c 0a 3d 3a a0 07 bd 5a c3 83 bc 29 0b 31 3d
       0.03379458 -0.03311179 -0.016084362 0.043223534
000370 e6 5b 56 bd 4a 0a 8f 3c fa e6 43 bd 00 43 60 3a
       -0.052333735 0.01746096 -0.0478277 0.00085549057
000380 a5 3f 4e 3d 4c 00 0e bc b3 8f 13 bd 54 14 54 bd
       0.050353665 -0.008667063 -0.036025714 -0.0517772
000390 5c e0 27 bc 00 28 7f b9 4c 87 67 3c 54 3e 03 3c
       -0.010246363 -0.00024333596 0.014131378 0.008010466
0003a0 6b e6 6a 3d 70 35 07 3b 80 73 7f ba 89 00 4d 3d
       0.05734865 0.0020631216 -0.0009744689 0.05004934
0003b0 12 f7 9f bc c6 36 e1 3c b3 4b 35 3d 9c ac e6 bc
       -0.019526992 0.027491938 0.044261646 -0.028158478
0003c0 f4 af 14 bd 1f 63 11 3d 8d 1d 1a 3d 3d 12 67 3d
       -0.036300614 0.03549492 0.037625838 0.056413878
0003d0 d7 e4 5f bd 91 23 6a 3d 5c e9 0d 3c ca cc 23 bd
       -0.054661598 0.057162825 0.008661594 -0.039990224
0003e0 84 57 b2 bc 8c 95 70 3c 4b 3f 10 3d 23 96 36 3d
       -0.021770246 0.014684092 0.03521661 0.044576775
0003f0 00 ea 8b 3a 95 fc 22 bd 08 ef dd bc b4 97 d0 bc
       0.0010674596 -0.039791662 -0.027091518 -0.025462963

conv4a.bias f4 [32]
000000 46 f7 b4 3c e8 09 1b bd a6 d3 58 bd 15 b1 00 3d
       0.022090565 -0.037851244 -0.05293622 0.03141888
000010 2c 8a 4a bc 36 38 a6 bc 80 2f 43 bc 02 c7 fc 3c
       -0.012362044 -0.020290475 -0.01191318 0.030856613
000020 c6 41 2d bd 94 ad 12 bc ec fc 1e bd d4 31 49 bc
       -0.042299055 -0.008952517 -0.038815424 -0.012279946
000030 12 3f fd 3c 60 0c f4 bc 40 0b 26 bc fe 83 bc 3c
       0.030913863 -0.029791057 -0.010134518 0.023012158
000040 d0 a3 aa bb 02 23 e8 bc 20 ab 30 3b b2 11 e8 3c
       -0.0052075163 -0.028337006 0.0026957467 0.02832875
000050 44 73 3a 3c a1 d3 26 3d 6e 6f ca 3c e9 1f 4a bd
       0.0113800205 0.04072917 0.024711337 -0.04934684
000060 f9 61 0f bd 4c 8d 6c 3c 3f 2c 04 bd 78 b4 1e bc
       -0.035005543 0.014437985 -0.03226876 -0.009686582
000070 37 67 fd bc df 2e 1e bd f4 ce 3b bd 89 ca 39 bd
       -0.030933006 -0.03861892 -0.045851663 -0.04535917

conv4b.weight f4 [32, 32, 3, 3]
000000 ff 4f 11 bd cc 91 04 be 12 0d 3b bd c4 08 bd bd
       -0.03547668 -0.12946242 -0.04566676 -0.092301875
000010 ba 2b ad bd 45 61 98 bd e1 8b 57 3c 3c ff 9e bd
       -0.08455606 -0.07440428 0.013155908 -0.07763526
000020 44 47 c7 bd 50 b3 a7 bc bd b6 56 bd 46 31 bd 3c
       -0.0973039 -0.020471245 -0.052420367 0.023094784
000030 70 2e 5d bb 05 b3 e7 bc 6d 8a bf bc 50 a1 f4 bc
       -0.0033749603 -0.028283605 -0.023381436 -0.029862076
000040 42 0a 10 3c 10 18 9d bd f4 7e 13 bd 1c 4b 3c bd
       0.008791508 -0.07670605 -0.036009744 -0.045970067
000050 b8 fc ce bc 2a 9a a4 3c 68 e8 85 3d 08 43 cc bc
       -0.02526699 0.020093042 0.065384686 -0.024934307
000060 40 86 17 3c 8a 2e a5 3c bc dd 99 3a 8d c3 8a 3c
       0.009248316 0.020163793 0.0011739056 0.016938949
000070 6b 89 e5 bc d7 2a 86 3d 15 a8 a8 bc 1f a3 5d 3d
       -0.028019628 0.0655114 -0.02058796 0.054110643
000080 e8 2b 01 3d de 80 04 3d 07 3b 92 bc 9a f1 95 3d
       0.031536013 0.03234946 -0.017850412 0.073214725
000090 d2 59 1e 3b b6 64 a3 bd 35 86 c7 bc 73 e0 35 3d
       0.0024162424 -0.079781935 -0.024355987 0.044403505
0000a0 d8 b1 ba 3b 81 a5 e0 3d 4f d0 44 3c b1 25 de 3c
       0.00569747 0.10969067 0.012012555 0.027117582
0000b0 c1 fc d7 bc 19 53 1c 3d 5b 76 c8 3a 92 98 73 3c
       -0.02636564 0.038165186 0.0015294062 0.014867919
0000c0 6b e9 f5 bc 78 8c ed 3d 48 29 6f bc b4 0f 0c 3d
       -0.030018529 0.11599058 -0.014597245 0.034194663
0000d0 74 06 9a 3a 90 2a ed bc 30 0e 84 bd 09 31 05 be
       0.0011751191 -0.02895096 -0.064480186 -0.13006987
0000e0 2c de 27 bd 4a fd e5 3b bf 02 35 bd e2 65 6b bd
       -0.040983364 0.00701872 -0.044192072 -0.05747021
0000f0 be 8b 94 3c 52 87 0f 3c fd 92 7b 3d 8a 39 37 bd
       0.01813304 0.00876029 0.061419476 -0.044732608
000100 a1 40 e1 bd 11 4c 11 3c 52 c4 f5 3c f3 c7 05 3c
       -0.10998655 0.008868233 0.03000084 0.008165347
000110 c5 9b 28 bd b6 be 55 bc 90 fa 8b 3c 5e af 53 3d
       -0.04116418 -0.013045957 0.017087251 0.051680915
000120 d8 bd 6f 3d 53 ee 72 3c 43 4a f3 ba cf 65 37 3c
       0.05853066 0.014827329 -0.001856156 0.011193707
000130 85 d0 48 bc da b1 d0 bd 02 89 9d 3d 94 42 17 3c
       -0.012256746 -0.101901725 0.07692148 0.009232182
000140 1a cf e9 bc 5b bf 23 bc 8e 22 56 bd c2 b5 51 3d
       -0.028541137 -0.009994353 -0.052279048 0.05119873
000150 f6 2e 01 bd e3 72 ba 3d 20 b1 e4 3c 56 09 c2 3c
       -0.031538926 0.09103944 0.027916491 0.023686092
000160 d5 0a e3 bc ce a1 0c 3d 13 4e 96 3c ea be b7 3a
       -0.027715126 0.034333996 0.018347776 0.0014018689
000170 7a 25 20 bd 92 23 91 bd 75 6d 60 bd 09 ff bf bc
       -0.03909824 -0.070868626 -0.054791886 -0.02343704
000180 66 37 bf bc 0a ca 98 bc 24 cf ae 3b 17 33 72 3b
       -0.023341846 -0.018651027 0.0053347517 0.0036956721
000190 8f d2 86 3c 11 8f 35 bb 8a 6c fe bb 09 60 46 bd
       0.016457824 -0.0027703682 -0.0077644037 -0.04843143
0001a0 b4 b3 bb bc 29 ef 20 3d 77 c0 9a 3d a5 c6 47 3c
       -0.022912838 0.03929058 0.07556241 0.012193357
0001b0 36 5f d1 bc 84 52 44 bd 85 f3 d6 3d 24 10 56 bd
       -0.025558095 -0.047930256 0.104956664 -0.052261487
0001c0 cd c2 2c bc b0 e1 71 3d 8b 4e f9 3b 74 98 5f bd
       -0.010544491 0.059053123 0.00760824 -0.05458875
0001d0 47 9d 5a bd de 5a 63 3d e8 1b bb bc 72 dd b5 bd
       -0.053372648 0.05550658 -0.022840455 -0.08880128
0001e0 e5 0c 67 3d 40 9c ad bc a0 7e 84 3d 53 8a 96 bc
       0.05640878 -0.02119267 0.06469464 -0.018376505
0001f0 4d 2b af 3c b3 ea 8a 3d fc 9a 8a 3d 05 bf 48 bd
       0.021382952 0.067830466 0.06767842 -0.049010295
000200 fe fc 33 ba 47 74 a9 bc a8 e6 b9 3d 29 1b 8d 3d
       -0.0006866007 -0.020685328 0.09077197 0.06889946
000210 84 b7 18 3c ab 61 d0 3c 0c 63 46 bd fc 99 3d bd
       0.009321097 0.025437197 -0.048434302 -0.04628943
000220 b4 0c 9e bd 75 b1 aa bc 90 ab 57 bb 82 3b 0a bd
       -0.07717267 -0.020836571 -0.0032908656 -0.033748157
000230 84 e1 66 bc 3d b4 0b bd c3 64 26 bc 9f bf a9 3c
       -0.014091853 -0.034107435 -0.010155859 0.020721255
000240 0a 87 45 bd 68 09 7c 3c 03 e7 44 3d f5 e8 d6 bc
       -0.048224486 0.015383102 0.048071872 -0.02623413
000250 9a d8 54 3d 36 34 82 bd 73 86 11 3d 52 d5 32 3d
       0.05196438 -0.06357615 0.03552861 0.04366047
000260 19 d2 37 bd 5d d4 19 3c 40 90 92 3d e5 ad 3c 3d
       -0.0448781 0.00938901 0.0715642 0.046064276
000270 97 a4 27 bd cf ee b1 bd db de 67 bd fe c5 31 bd
       -0.04092845 -0.08688127 -0.056609016 -0.04340171
000280 05 14 9f 3d 06 0e 7c bb 15 15 61 bc 02 70 64 bd
       0.0776749 -0.0038460507 -0.0137379365 -0.05577088
000290 37 16 39 bd 5b 60 76 3d 82 ac 84 bd 5c 1a 8a bd
       -0.0451872 0.060150485 -0.06478216 -0.06743309
0002a0 45 9e 68 3d 17 ed 38 3d 51 d5 26 3d 77 0e 4e bd
       0.056791563 0.04514798 0.040730778 -0.050306763
0002b0 0b c6 d5 bb 24 21 0f 3e 87 b9 48 3d f9 57 f0 3d
       -0.0065238527 0.13977486 0.049005058 0.117355295
0002c0 3c 0d 61 bd b9 46 86 38 e9 b8 23 bc 24 fe 8b bd
       -0.054944262 6.402791e-05 -0.0099928165 -0.06835583
0002d0 d1 94 bd 3c 5e b9 cf 3c 19 88 1c 3d 2f a2 10 bc
       0.02314225 0.025356945 0.03821573 -0.00882773
0002e0 86 8f ae bd af 50 85 bd 75 6e 15 bd 7b 52 65 bd
       -0.08523469 -0.0650953 -0.036482293 -0.055986863
0002f0 62 c4 6b bd 7b 72 00 3d cd fb da bd 98 06 ac bd
       -0.057560332 0.031359177 -0.106925584 -0.08399695
000300 44 9f ac 3d e1 d9 85 bd fe ad ae 3c 3a 22 4b bc
       0.08428815 -0.06535698 0.0213232 -0.012398297
000310 0d 01 23 bc 3c e9 bc 3c 35 b4 99 bc 1d c9 e4 3b
       -0.009948981 0.023060434 -0.018762687 0.0069819824
000320 96 8a bc 3c 34 ef 5c bc e8 0d 0e 3d 0e 63 5f 3c
       0.023015302 -0.013484765 0.03468123 0.013634456
000330 1d ea be ba f6 4d 9e bd 69 6c 80 3d 17 a2 92 3a
       -0.0014565621 -0.077297136 0.062706776 0.0011187223
000340 30 5f 58 3c e8 c7 e3 3c 75 52 2f 3d 34 73 2d bd
       0.013206288 0.027805284 0.042803247 -0.042346194
000350 ed 33 81 3d fd 5b ca bb 72 2d c9 bb c8 d3 47 bd
       0.06308732 -0.0061755166 -0.0061394507 -0.048785955
000360 ba 6c f7 bc c4 d0 01 be 4c 88 72 bd f1 57 ea 3d
       -0.030203212 -0.12677294 -0.059212014 0.11442555
000370 88 ce 87 3c 14 94 0d 3d e9 5b 99 bb cd b7 b0 bb
       0.016577974 0.034565046 -0.004680146 -0.0053930045
000380 9f 4f 9c 3d ec 22 00 3e ae ab 9c bd c3 04 37 bd
       0.07632374 0.12513322 -0.07649933 -0.044682276
000390 58 cc 8c 3d f1 9b 24 3d 96 fc 19 3d f1 77 98 bd
       0.06874913 0.04018778 0.0375944 -0.07444752
0003a0 f4 4f 24 bc 42 d8 ef bb d1 64 5b 3b 0b 33 fe 3b
       -0.010028828 -0.007319481 0.003347684 0.0077575496
0003b0 22 d9 a4 3c 70 38 08 bd 76 de b1 bd 48 c0 d8 bd
       0.020123068 -0.033256948 -0.08685009 -0.1058355
0003c0 aa ae dc bc af 88 fb bc 16 79 31 3c 6b 82 87 bd
       -0.026938755 -0.030704824 0.010832092 -0.06616672
0003d0 52 6a 9e 3d fc dd 0c 3d 12 b0 d1 bc 0f 58 86 bd
       0.07735123 0.03439139 -0.025596652 -0.065597646
0003e0 5d 62 ab bd 98 98 0a bd f8 49 20 bc d8 fa 09 bd
       -0.08368371 -0.03383693 -0.0097832605 -0.03368649
0003f0 3f 9b 01 3b 10 e9 fa 3c 35 37 e7 bd d7 d4 90 3b
       0.0019776372 0.030628711 -0.11289827 0.0044199037

conv4b.bias f4 [32]
000000 3f de 36 3d dc 91 e1 3c ea 63 d6 3d 36 7c e1 3d
       0.044645544 0.027535371 0.10468276 0.110100195
000010 0f 2a 76 bd ca 02 aa 3d 98 e1 9d 3d cf 55 cf 3c
       -0.060098704 0.08301313 0.07709044 0.025309471
000020 82 2b e3 3c 0d 03 b7 3c ed aa 24 3d e5 74 81 bd
       0.027730707 0.022340322 0.04020207 -0.06321124
000030 d3 62 ef 3c a2 a6 9d 3d 0e 48 52 3d ad 12 bb 3d
       0.029221928 0.07697798 0.051338248 0.091344215
000040 b6 ca 47 3d 4b 6a 80 3c 22 c0 f6 bd 8c 63 91 3d
       0.048777305 0.015675684 -0.12048365 0.07099065
000050 62 6e 8a bb 2c df 3d 3c 51 ed 42 bd f0 d0 4e bd
       -0.0042245844 0.011588853 -0.047589604 -0.050492227
000060 f2 59 da 3d 54 7c 11 3e 3f a9 c3 3c d8 48 ca 3c
       0.10661687 0.14207584 0.023884414 0.024692938
000070 e1 2b 4c bd 6e 31 38 3d bf 17 78 3d 85 74 cd 3d
       -0.049846534 0.044969015 0.06056952 0.1003199
